WARNING: using local data (also for training!)
loading data: start
loading data: completed
jetUps= (?, 30, 30, 2)
NNinputs= (?, 30, 30, 4)
ComplInput= (?, 30, 30, 6)
__________________________________________________________________________________________________
Layer (type)                    Output Shape         Param #     Connected to                     
==================================================================================================
input_1 (InputLayer)            (None, 1)            0                                            
__________________________________________________________________________________________________
input_2 (InputLayer)            (None, 1)            0                                            
__________________________________________________________________________________________________
concatenate_1 (Concatenate)     (None, 2)            0           input_1[0][0]                    
                                                                 input_2[0][0]                    
__________________________________________________________________________________________________
reshape_1 (Reshape)             (None, 1, 1, 2)      0           concatenate_1[0][0]              
__________________________________________________________________________________________________
input_3 (InputLayer)            (None, 30, 30, 4)    0                                            
__________________________________________________________________________________________________
up_sampling2d_1 (UpSampling2D)  (None, 30, 30, 2)    0           reshape_1[0][0]                  
__________________________________________________________________________________________________
concatenate_2 (Concatenate)     (None, 30, 30, 6)    0           input_3[0][0]                    
                                                                 up_sampling2d_1[0][0]            
__________________________________________________________________________________________________
conv2d_1 (Conv2D)               (None, 30, 30, 50)   14750       concatenate_2[0][0]              
__________________________________________________________________________________________________
conv2d_2 (Conv2D)               (None, 30, 30, 40)   50040       conv2d_1[0][0]                   
__________________________________________________________________________________________________
conv2d_3 (Conv2D)               (None, 30, 30, 40)   40040       conv2d_2[0][0]                   
__________________________________________________________________________________________________
conv2d_4 (Conv2D)               (None, 30, 30, 30)   30030       conv2d_3[0][0]                   
__________________________________________________________________________________________________
conv2d_5 (Conv2D)               (None, 30, 30, 30)   8130        conv2d_4[0][0]                   
__________________________________________________________________________________________________
conv2d_6 (Conv2D)               (None, 30, 30, 30)   8130        conv2d_5[0][0]                   
__________________________________________________________________________________________________
conv2d_10 (Conv2D)              (None, 30, 30, 30)   8130        conv2d_5[0][0]                   
__________________________________________________________________________________________________
conv2d_7 (Conv2D)               (None, 30, 30, 30)   8130        conv2d_6[0][0]                   
__________________________________________________________________________________________________
conv2d_11 (Conv2D)              (None, 30, 30, 25)   6775        conv2d_10[0][0]                  
__________________________________________________________________________________________________
conv2d_8 (Conv2D)               (None, 30, 30, 30)   8130        conv2d_7[0][0]                   
__________________________________________________________________________________________________
conv2d_12 (Conv2D)              (None, 30, 30, 20)   4520        conv2d_11[0][0]                  
__________________________________________________________________________________________________
conv2d_9 (Conv2D)               (None, 30, 30, 18)   4878        conv2d_8[0][0]                   
__________________________________________________________________________________________________
conv2d_13 (Conv2D)              (None, 30, 30, 6)    1086        conv2d_12[0][0]                  
__________________________________________________________________________________________________
reshape_2 (Reshape)             (None, 30, 30, 3, 6) 0           conv2d_9[0][0]                   
__________________________________________________________________________________________________
reshape_3 (Reshape)             (None, 30, 30, 3, 2) 0           conv2d_13[0][0]                  
==================================================================================================
Total params: 192,769
Trainable params: 192,769
Non-trainable params: 0
__________________________________________________________________________________________________
total number of events = 119457.6
total number of events validation= 29864.4
prediction: start
…
